AI_pkg/dataFile/ver2.pth (torch, 256759 bytes, 6 tensors)

fc1.weight f8 [128, 182]
0.05217738449573517 0.03687494993209839 -0.03157893568277359 0.038899436593055725 0.0020042136311531067 -0.05271422117948532 0.05926504731178284 -0.03999464213848114
0.010525673627853394 0.05639246106147766 -0.03523806110024452 -0.02375011518597603 -0.03662295266985893 0.06904590129852295 -0.016831226646900177 -0.04209350422024727
0.06073415279388428 0.048440366983413696 -0.03788232430815697 0.020040519535541534 -0.029468517750501633 -0.008762456476688385 0.06709602475166321 0.061188265681266785
0.05463920533657074 0.034298405051231384 -0.044466547667980194 -0.006250984966754913 -0.0709289088845253 0.011748984456062317 0.04147551953792572 0.0427226722240448
-0.007998891174793243 0.04462076723575592 0.018625840544700623 -0.05278266966342926 0.052782297134399414 0.031223520636558533 -0.05188330262899399 0.012099064886569977
-0.04534482955932617 0.0027476102113723755 -0.06609011441469193 0.0640164464712143 -0.07036901265382767 -0.030456360429525375 -0.013844866305589676 0.0456259548664093
0.00791555643081665 -0.03960861638188362 -0.03594104200601578 -0.06502487510442734 -0.021670136600732803 -0.04295528680086136 -0.06413554400205612 -0.029995519667863846
-0.007112123072147369 0.011697262525558472 0.011492080986499786 0.01011713594198227 -0.019877243787050247 0.039965905249118805 0.012996286153793335 -0.05959950387477875
0.073115274310112 0.023596778512001038 -0.035601574927568436 -0.06774130463600159 0.06368526816368103 0.060547247529029846 0.0017083287239074707 -0.03833247348666191
0.0526006817817688 -0.017344817519187927 -0.03888186067342758 -0.04921736568212509 -0.027553752064704895 0.06043972074985504 -0.0009772777557373047 0.06880420446395874
-0.06049146503210068 -0.04991472512483597 4.984438419342041e-06 -0.0667271763086319 -0.06772729009389877 0.005612894892692566 0.048237286508083344 0.023464232683181763
0.05603954195976257 -0.04660941660404205 -0.03761155158281326 0.006845466792583466 0.07054556906223297 0.00842496007680893 -0.012525435537099838 -0.06354174762964249
0.0010931864380836487 0.05501475930213928 -0.07367081195116043 -0.007338404655456543 -0.015492808073759079 0.02855045348405838 0.000878848135471344 0.03094913810491562
0.04688272625207901 0.009562529623508453 -0.03269398212432861 0.02793344110250473 -0.05095713585615158 -0.02708464488387108 -0.06690096110105515 -0.007020644843578339
0.011391520500183105 -0.06690661609172821 -0.058832887560129166 -0.06202881783246994 0.062487825751304626 -0.053594477474689484 0.01990121603012085 0.05349625647068024
0.05520455539226532 0.02829473465681076 -0.07121029496192932 0.007277481257915497 0.006677001714706421 -0.06967743486166 0.022896848618984222 0.03754280507564545
0.02351180464029312 -0.06589671969413757 -0.01322115957736969 -0.04685182124376297 -0.02688712626695633 0.0037050843238830566 0.05917903780937195 0.0345408171415329
-0.019010916352272034 -0.06863835453987122 0.06071893870830536 -0.013159189373254776 0.04083628952503204 0.014415420591831207 0.05669809877872467 0.04497941583395004
0.030077442526817322 -0.06366020441055298 -0.062094032764434814 0.029328443109989166 -0.04499049484729767 0.03348894417285919 -0.05106373131275177 -0.060168035328388214
-0.0381191112101078 0.006513454020023346 0.06630513072013855 -0.013253729790449142 -0.05447889119386673 0.009755663573741913 -0.033734969794750214 -0.03458128124475479
-0.04465615749359131 -0.0622933991253376 -0.03142719715833664 -0.05598258227109909 0.07314041256904602 0.04507056623697281 0.033185407519340515 0.05203944444656372
-0.04729239642620087 -0.019927918910980225 -0.06833668053150177 -0.006277807056903839 -0.017028633505105972 -0.06557199358940125 0.06593382358551025 0.06744332611560822
-0.006985358893871307 -0.026709407567977905 -0.03767626732587814 -0.007917225360870361 0.03561306744813919 -0.04156719148159027 0.045275085433403604 -0.01856973543808938
0.009250614263671266 0.011733199872630586 -0.08616917260680812 0.010206710018771546 -0.05967414804492605 -0.06781531178150776 0.05193941614832232 0.06075126252378802
-0.0011736197093549585 0.008317794122355688 -0.08082198031936266 -0.0015181569078985008 0.05190162680353474 0.015796247341292997 -0.0004903344133916542 0.013082015730994736
0.0169738339563786 -0.048251282952171896 -0.08476297982726716 -0.014569383643013495 -0.0681155627289832 -0.04093085282240564 -0.04395982303414985 0.04123822174276697
-0.04289510898981728 0.02146355382408507 -0.03866894223485629 -0.07638130017314519 -0.07557519205604152 -0.016919065795284734 -0.026941255263430084 -0.07262631186042397
0.05364185891355827 0.01895123294796344 -0.0020059613207402942 0.061451989628928706 -0.06631894089971187 -0.0027160016516271316 0.007541860856669708 0.028837467946666483
0.02143870613779433 0.010701130547183411 0.0008491086145815301 0.003870199837344522 -0.013027500889641304 -0.04807663016710912 0.007003534056800207 -0.07066355325971226
0.016627329804557476 -0.08434045740161561 0.02992328576053974 -0.06567225285564066 -0.05565546878371843 0.008025686659472703 -0.028889563463074194 0.0038080247422631656
-0.04804234632049236 -0.022378940663677686 -0.037302546731573696 -0.015208390138489236 -0.05745570041928894 -0.08141223766599279 -0.05726702191625243 0.04734625241960818
-0.07087064214740377 0.0010422723671373734 -0.01534118183646822 -0.08645236172471663 -0.0394483213940685 0.0176683398267209 0.018753248669761382 0.02504257432426799
00000000: 0000 0080 feb6 aa3f 0000 0000 46e1 a23f
00000010: 0000 0040 1d2b a0bf 0000 0080 a0ea a33f
00000020: 0000 0000 246b 603f 0000 00c0 5bfd aabf
00000030: 0000 0000 fd57 ae3f 0000 0080 2d7a a4bf
00000040: 0000 0000 7c8e 853f 0000 0000 79df ac3f
00000050: 0000 0020 b90a a2bf 0000 0040 f351 98bf
00000060: 0000 0060 3ec0 a2bf 0000 0000 feac b13f
00000070: 0000 0080 343c 91bf 0000 00a0 478d a5bf
00000080: 0000 0000 8c18 af3f 0000 0000 2dcd a83f
00000090: 0000 00e0 4f65 a3bf 0000 0080 8085 943f
000000a0: 0000 00c0 fe2c 9ebf 0000 0000 0df2 81bf
000000b0: 0000 0080 342d b13f 0000 0080 1154 af3f
000000c0: 0000 0080 abf9 ab3f 0000 0080 8f8f a13f
000000d0: 0000 00c0 51c4 a6bf 0000 0000 a29a 79bf
000000e0: 0000 00a0 6528 b2bf 0000 0000 da0f 883f
000000f0: 0000 0080 473c a53f 0000 0000 bfdf a53f
00000100: 0000 0000 b961 80bf 0000 0080 88d8 a63f
00000110: 0000 0000 a712 933f 0000 0080 5406 abbf
00000120: 0000 0000 4806 ab3f 0000 0000 0ff9 9f3f
00000130: 0000 00c0 7290 aabf 0000 0000 65c7 883f
00000140: 0000 0000 7037 a7bf 0000 0000 2882 663f
00000150: 0000 0020 48eb b0bf 0000 00c0 6163 b03f
00000160: 0000 0020 b403 b2bf 0000 00c0 f32f 9fbf
00000170: 0000 0080 b25a 8cbf 0000 0000 495c a73f
00000180: 0000 0000 0836 803f 0000 00a0 9447 a4bf
00000190: 0000 0040 dd66 a2bf 0000 0060 78a5 b0bf
000001a0: 0000 0040 b230 96bf 0000 0040 3cfe a5bf
000001b0: 0000 00e0 2f6b b0bf 0000 0040 25b7 9ebf
000001c0: 0000 0000 9a21 7dbf 0000 0000 bcf4 873f
000001d0: 0000 0000 2989 873f 0000 0000 4bb8 843f
000001e0: 0000 0040 b35a 94bf 0000 0040 6976 a43f
000001f0: 0000 0000 cc9d 8a3f 0000 0080 d383 aebf
00000200: 0000 00c0 aeb7 b23f 0000 0000 c129 983f
00000210: 0000 00a0 5e3a a2bf 0000 0080 7e57 b1bf
00000220: 0000 0080 ad4d b03f 0000 0080 0c00 af3f
00000230: 0000 0000 40fd 5b3f 0000 0060 50a0 a3bf
00000240: 0000 0000 7aee aa3f 0000 0000 d7c2 91bf
00000250: 0000 00c0 52e8 a3bf 0000 00c0 0433 a9bf
00000260: 0000 0000 0d37 9cbf 0000 0080 f4f1 ae3f
00000270: 0000 0000 0003 50bf 0000 0000 279d b13f
00000280: 0000 00c0 bcf8 aebf 0000 0040 6c8e a9bf
00000290: 0000 0000 00e8 d43e 0000 0040 0815 b1bf
000002a0: 0000 0060 9356 b1bf 0000 0000 8cfd 763f
000002b0: 0000 00c0 8eb2 a83f 0000 0000 0207 983f
000002c0: 0000 0000 37b1 ac3f 0000 0080 30dd a7bf
000002d0: 0000 0040 d241 a3bf 0000 0000 fe09 7c3f
000002e0: 0000 0040 460f b23f 0000 0000 1b41 813f
000002f0: 0000 0080 efa6 89bf 0000 00a0 4544 b0bf
00000300: 0000 0000 28e9 513f 0000 0000 e52a ac3f
00000310: 0000 0020 17dc b2bf 0000 0000 e00e 7ebf
00000320: 0000 0080 b1ba 8fbf 0000 0080 543c 9d3f
00000330: 0000 0000 50cc 4c3f 0000 0080 21b1 9f3f
00000340: 0000 0040 0301 a83f 0000 0000 8595 833f
00000350: 0000 0000 44bd a0bf 0000 0080 959a 9c3f
00000360: 0000 00c0 0d17 aabf 0000 00c0 13bc 9bbf
00000370: 0000 00e0 6b20 b1bf 0000 0000 aec1 7cbf
00000380: 0000 0000 7054 873f 0000 00c0 ca20 b1bf
00000390: 0000 0020 581f aebf 0000 00c0 3dc2 afbf
000003a0: 0000 0080 67fe af3f 0000 0040 bc70 abbf
000003b0: 0000 0000 fc60 943f 0000 0080 dc63 ab3f
000003c0: 0000 0080 c543 ac3f 0000 0080 4bf9 9c3f
000003d0: 0000 0080 d63a b2bf 0000 0000 fece 7d3f
000003e0: 0000 0000 5859 7b3f 0000 0060 61d6 b1bf
000003f0: 0000 0080 4572 973f 0000 0080 cf38 a33f
00000400: 0000 0080 7a13 983f 0000 0080 9bde b0bf
00000410: 0000 0000 b213 8bbf 0000 0040 f6fc a7bf
00000420: 0000 0080 4c88 9bbf 0000 0000 205a 6e3f
00000430: 0000 0000 b74c ae3f 0000 0080 55af a13f
00000440: 0000 0000 9977 93bf 0000 0080 4892 b1bf
00000450: 0000 0080 8d16 af3f 0000 0080 34f3 8abf
00000460: 0000 0080 7ee8 a43f 0000 0000 d585 8d3f
00000470: 0000 0080 8807 ad3f 0000 00c0 8a07 a73f
00000480: 0000 0000 9fcc 9e3f 0000 0000 094c b0bf
00000490: 0000 0000 caca afbf 0000 0080 4608 9e3f
000004a0: 0000 0080 fe08 a7bf 0000 0080 7625 a13f
000004b0: 0000 0080 0625 aabf 0000 0040 58ce aebf
000004c0: 0000 0020 5984 a3bf 0000 0000 daad 7a3f
000004d0: 0000 0080 5ff9 b03f 0000 0080 c524 8bbf
000004e0: 0000 0040 a8e4 abbf 0000 0000 c7fa 833f
000004f0: 0000 00c0 b545 a1bf 0000 0040 a3b4 a1bf
00000500: 0000 0000 2cdd a6bf 0000 00a0 ebe4 afbf
00000510: 0000 00c0 3917 a0bf 0000 00c0 bfa9 acbf
00000520: 0000 0080 54b9 b23f 0000 0040 7d13 a73f
00000530: 0000 0080 adfd a03f 0000 0000 eaa4 aa3f
00000540: 0000 0080 b536 a8bf 0000 0000 fc67 94bf
00000550: 0000 0040 837e b1bf 0000 0000 c2b6 79bf
00000560: 0000 0040 f46f 91bf 0000 0080 53c9 b0bf
00000570: 0000 0000 0ae1 b03f 0000 0040 f743 b13f
00000580: 0000 0000 ae9c 7cbf 0000 0000 b659 9bbf
00000590: 0000 00c0 4d4a a3bf 0000 0000 e836 80bf
000005a0: 0000 0040 e03b a23f 0000 0080 4b48 a5bf
000005b0: 7b28 85c6 4b2e a73f 029d 9bd9 f103 93bf
000005c0: 0ed1 d76d fcf1 823f 54d1 d76d 9307 883f
000005d0: d005 45d2 2e0f b6bf 1fd1 d76d 41e7 843f
000005e0: 990b 8a24 9c8d aebf c605 4522 585c b1bf
000005f0: 31f4 759b cd97 aa3f 5df4 751b ca1a af3f
00000600: a576 4191 843a 53bf cad0 d76d eb08 813f
00000610: b405 45d2 bfb0 b4bf 8876 4191 9cdf 58bf
00000620: 33f4 759b d992 aa3f d5e8 eb36 e42c 903f
00000630: adec 8222 3911 40bf 6ed1 d76d beca 8a3f
00000640: d5e8 ebb6 9661 913f b70b 8a64 64b4 a8bf
00000650: d405 45d2 06b3 b5bf b02e 2892 8dd6 8dbf
00000660: c605 4582 0570 b1bf d50b 8a84 e3f4 a4bf
00000670: c70b 8ae4 e681 a6bf 67f4 751b 2d1d a53f
00000680: bd0b 8a04 59f6 a5bf 07e9 ebb6 8afa 953f
00000690: c10b 8a64 6acc a3bf ab05 4592 b98d b3bf
000006a0: a405 4552 e558 b3bf 4f17 1449 3b53 91bf
000006b0: 4917 1409 7d96 9bbf ad05 4552 a397 b2bf
000006c0: 38f4 751b f276 ab3f e7e8 ebb6 f367 933f
000006d0: 3cbb a048 ce6e 60bf 5df4 759b a276 af3f
000006e0: c505 4532 47fa b0bf 34bb a048 de3f 66bf
000006f0: d4a1 afdb 36e4 7e3f f3e8 ebb6 9187 9d3f
00000700: 07e9 eb36 07f4 953f 1fd1 d76d 79ea 853f
00000710: a813 7ddd d6d2 4b3f 4944 5fb7 65b4 6f3f
00000720: b12e 2892 29ae 8abf b90b 8a04 809d a8bf
00000730: fea1 afdb bcaf 7c3f b505 45b2 0117 b2bf
00000740: d9e8 eb36 c106 913f d405 4512 5697 b5bf
00000750: e9e8 ebb6 35a4 9e3f c405 4592 e5cf b0bf
00000760: 930b 8aa4 df7e acbf d0d0 d76d c56f 803f
00000770: 4f17 14c9 3995 9dbf 0b44 5fb7 0132 6f3f
00000780: b70b 8aa4 0199 a8bf 5117 1449 81ea 96bf
00000790: ba0b 8ac4 5119 a3bf a02e 2892 9325 8fbf
000007a0: 910b 8a64 d56a adbf b605 45b2 6ed7 b4bf
000007b0: 8f0b 8a64 1a52 adbf 1bf4 759b c43d a83f
000007c0: b605 4512 9424 b2bf c289 be6e 9b13 513f
000007d0: a62e 2892 326b 8fbf d205 45f2 bd21 b6bf
000007e0: cf0b 8a04 9232 a4bf e3e8 eb36 a617 923f
000007f0: e7e8 eb36 0d34 933f d1e8 ebb6 c2a4 993f

fc1.bias f8 [128]
0.07166294753551483 0.03608577272900126 -0.08355418696967354 -0.0363245629762598 0.05764656933546996 -0.07088525596778608 0.03651673844005928 -0.06520292477497466
-0.011089110311564208 -0.09242806465760252 -0.05911154861199499 -0.08635749737069713 -0.12670050012241027 -0.05600203486115647 0.0581900030374527 -0.06076095567637724
-0.04894913989677732 0.022156789898872375 0.05855032623765296 -0.03117721951143524 -0.017689814263609195 0.036157079390171896 -0.010353576958732624 -0.030238792300224304
-0.06207264626957138 -0.005753861843477226 -0.0656317090034644 0.02986638275242868 -0.13504849600761476 0.04488734934219581 0.013288386166095734 -0.04689640046890127
-0.048041752639493326 0.010546819273074347 -0.0049826989110079946 0.0006348454071619356 -0.08802073843375087 0.02689739863204834 -0.04087985596864678 -0.022975417699483372
-0.043631702405274544 0.011824141563230353 -0.15530328535561633 0.02473760747566682 -0.06694033571502594 0.03625471868324191 0.031239463726020874 -0.09778979966918079
-0.08542587271204188 -0.05412712179751005 -0.06437573581933975 -0.02197539061307907 -0.06641046205667843 0.031185516165157155 0.002385725077301015 -0.05415505762074831
-0.04340578207969313 0.025694893685062652 0.056481629610061646 -0.0795863297387982 -0.05377711682963457 -0.01402524764427536 -0.07571373508129532 0.01539473464726555
-0.07191734158172786 0.04225915952393895 -0.07078772062869176 -0.07683862818824018 0.03387086275793571 -0.004466593484068631 -0.07811193323058283 -0.004879453620795828
-0.1295431821429942 -0.022387880831956863 -0.06078862926671898 -0.06212449990388278 0.06137331908730399 -0.04878498268495247 0.06948995590209961 -0.04289523798177423
0.09248800023073518 -0.104012943394497 -0.01339141361174627 -0.07538797441327406 -0.03832939659518108 -0.0886241935095339 -0.14256739673070504 -0.07273959068955829
0.039439940415987695 0.01917957478132159 0.017808681116034532 -0.07113557467838232 0.004991516426872827 -0.06814994589129082 0.04180701822042465 -0.1088944801934236
0.02732401720634305 -0.0849471517675071 -0.009998557524053521 -0.02095228698836707 0.018004228843305298 -0.008211332431026607 -0.06269349188673291 -0.0082235187292099
-0.01725861475068228 -0.07523373761054539 0.027938158303922142 -0.02836050606841576 -0.00892216699259464 -0.03918689116835594 0.0185239315032959 0.05715443035923922
-0.03612169590132562 -0.023114811327426647 -0.053076991195911846 -0.02648410071750641 -0.03189206123352051 0.0033945999135119036 -0.03201043082024992 -0.04212964302815459
0.015161551535129547 -0.027223560379635574 -0.06355051522981174 0.06079169244149582 0.054073101917461994 0.013360485434532166 -0.08509871530222637 -0.028841107252268367
00000000: 0000 00c0 8058 b23f 4fa3 719b d579 a23f
00000010: a886 7aa4 ce63 b5bf f88e 0c14 2299 a2bf
00000020: 3f7d 0be4 d983 ad3f 7a75 2640 8925 b2bf
00000030: 9b99 b66a 52b2 a23f a616 838d 23b1 b0bf
00000040: 720b 0a31 e3b5 86bf addd ef9a 5da9 b7bf
00000050: 3378 3570 de43 aebf 83b7 f862 861b b6bf
00000060: f3cf 34d4 b837 c0bf baea 7978 4cac acbf
00000070: 0000 0080 14cb ad3f f8ea 015b 0f1c afbf
00000080: 1448 0c96 dc0f a9bf 0000 0000 45b0 963f
00000090: 5bc1 b8f0 4efa ad3f fa30 bac8 ebec 9fbf
000000a0: ea24 f056 471d 92bf f3d3 ff42 2e83 a23f
000000b0: 009a 7993 4134 85bf 0000 0000 ebf6 9ebf
000000c0: c970 6863 fcc7 afbf 5a51 1887 5c91 77bf
000000d0: b21e c05b 3dcd b0bf 9a9d af04 4b95 9e3f
000000e0: 3e04 dde4 4449 c1bf 4b93 db82 79fb a63f
000000f0: 0000 0000 f136 8b3f 2acb a014 ce02 a8bf
00000100: f6b8 dbb8 ed98 a8bf cc60 d61e 9299 853f
00000110: fbc2 e50d bd68 74bf e9e2 8121 78cd 443f
00000120: c556 f1f0 8688 b6bf 2674 e3dd fd8a 9b3f
00000130: a6ab e658 34ee a4bf b45e 862e de86 97bf
00000140: da85 ccfd e456 a6bf 1bee 896a 4137 883f
00000150: 3c28 c861 fae0 c3bf ac6a 5bbc d054 993f
00000160: 6ce6 ad78 0023 b1bf cef1 237e fa8f a23f
00000170: 6ffc 30ec 3cfd 9f3f 6126 7697 c008 b9bf
00000180: 74cd 8751 78de b5bf f7d1 e4d3 8cb6 abbf
00000190: 0000 00a0 ed7a b0bf 0000 0080 b780 96bf
000001a0: 774b a5aa 4600 b1bf 9625 2790 18ef 9f3f
000001b0: 996a e565 3a8b 633f bbc8 c932 36ba abbf
000001c0: deaa fa5c 4839 a6bf 2bc7 3420 c34f 9a3f
000001d0: 0000 0000 29eb ac3f d0d2 6f0b c55f b4bf
000001e0: 3ce7 1c9c ac88 abbf b88c 9adf 44b9 8cbf
000001f0: 613c 08b0 f961 b3bf 668e b94e 4687 8f3f
00000200: 24d9 1bc6 2c69 b2bf 3a39 3918 fea2 a53f
00000210: 7001 0fe1 241f b2bf a953 2343 b2ab b3bf
00000220: 8f4f aa8f 8557 a13f f982 040f 904b 72bf
00000230: 9e16 a7c6 24ff b3bf b523 945b 7afc 73bf
00000240: c8a9 5cf9 de94 c0bf 0000 0040 d9ec 96bf
00000250: daa4 56ed af1f afbf 1d2d bc4e c8ce afbf
00000260: 1a65 a7dc 526c af3f 81e9 5562 58fa a8bf
00000270: 0000 0000 18ca b13f e55b 9258 5df6 a5bf
00000280: 5571 4328 4bad b73f d374 3d9e 97a0 babf
00000290: 58c8 131c f56c 8bbf d9df 9d54 a04c b3bf
000002a0: 2f14 b421 e99f a3bf ba00 c23c 13b0 b6bf
000002b0: 0795 3701 a63f c2bf 12d6 22d3 0f9f b2bf
000002c0: 9857 7ccc 7831 a43f 1e73 bf79 cfa3 933f
000002d0: 47bd e95b 703c 923f cb68 d3e6 f035 b2bf
000002e0: 2c4e f9fc fb71 743f 8dc7 d35c 4672 b1bf
000002f0: 0000 00c0 ba67 a53f e64a 2537 82e0 bbbf
00000300: e5b3 2fc1 d3fa 9b3f 9fd3 bab6 18bf b5bf
00000310: f478 95ac 1f7a 84bf 68d6 902d 8474 95bf
00000320: b86a 4958 b36f 923f 5995 fb61 1ad1 80bf
00000330: d957 5341 ae0c b0bf 0000 0000 7ed7 80bf
00000340: eab9 b607 3eac 91bf ded7 97aa 8442 b3bf
00000350: 6c3c e710 d29b 9c3f fa56 3f58 890a 9dbf
00000360: 4889 8afb c845 82bf 0000 00e0 4d10 a4bf
00000370: 0000 0000 f0f7 923f 57cb 6d72 5843 ad3f
00000380: 0efe 24fd 8a7e a2bf 7e6a d1ba 68ab 97bf
00000390: f689 b64a e82c abbf 235b c8e9 a51e 9bbf
000003a0: 0000 0000 2854 a0bf 41b8 91f3 fdce 6b3f
000003b0: d3f7 01d3 ab63 a0bf 2104 ff3d 0492 a5bf
000003c0: 0000 0000 050d 8f3f 3e7c 0b36 7ee0 9bbf
000003d0: 7355 8eb8 d844 b0bf cc36 cfb5 1620 af3f
000003e0: 1655 a838 78af ab3f 0000 0000 be5c 8b3f
000003f0: ea98 2787 07c9 b5bf 1537 b7f1 8588 9dbf

fc2.weight f8 [64, 128]
-0.027165159583091736 -0.06071889226117393 0.07805414279132797 -0.021692172135101162 0.019662514328956604 0.08004553990206585 0.011301636695861816 -0.4998488972873055
-0.03323631858393292 0.09914111824625813 0.09727944473093873 0.02241200801703673 -0.07538265419062776 0.05529033279747539 -0.03998361900448799 -0.049454481982249006
-0.029139260990219858 0.06950334459543228 0.044007616337566294 0.05380474715470113 0.07650747994853355 -0.0641941772008732 0.179950654377958 -0.07567387819290161
0.08993924027067894 0.03398307773724057 0.02213555297095731 -0.05356931306952805 0.001591561558870008 0.02813246774661283 0.05123903602361679 -0.0992140755935232
0.07348272949457169 -0.009493150143281118 0.040566177355406276 -0.0313758671107739 0.09788314767216258 0.012852185868687822 -0.03650062699461844 0.11639968009482093
0.020118460059165955 0.010874535420471176 -0.09929736764500623 -0.08694380001879379 -0.037222375900889504 0.031424833634058104 0.019043125212192535 -0.044373743908591355
-0.08951147940906043 -0.010573529501902558 -0.04493843391537666 -0.03587979078292847 -0.04888656173706417 0.019298195838928223 -0.01895533320832014 -0.17286707700270662
0.03812928667643577 0.08196759332933712 -0.07476519793272018 0.024461745489989993 -0.08587559878526754 -0.1023545553799628 -0.03815589058557319 -0.197258433113747
0.08114904648977897 0.03376965959587355 -0.03641645327278066 -0.06284411637273617 -0.011875443160533905 -0.04901143261324747 0.04341474303667455 0.021949942581843573
-0.08126158790686179 0.06448017805814743 -0.015437883532048481 -0.017321614161059148 -0.08956430842016098 0.06711944560854123 -0.020683184266090393 -0.03183895027371314
-0.00020790693551653164 -0.030302772584707562 0.026470843854811143 -0.040176085956028854 -0.10664004796076451 0.04990507905794042 -0.4036082330910728 -0.039269797654573
0.05290339142084122 0.06345899103417112 -0.2113308494011393 -0.04878574063467143 -0.05189769754244302 0.08492473287857585 -0.03357338905334473 0.0797822086279049
0.03502222979462918 0.0701874659962514 0.013830572366714478 -0.013112463057041168 0.03750931365065841 0.004263632401507056 0.11875665338499654 0.06041068583726883
0.06433674408222335 -0.0878379769105032 0.030975021421909332 0.010635309457937775 -0.03845997957209441 0.061535634100437164 -0.08332793414592743 -0.07810462041333063
-0.15413171838497028 0.011368796229362488 -0.1845220129643305 -0.0439559971080606 0.08746374398469925 0.03055431241505555 -0.02508614248775885 0.03141980475629798
0.0771290585398674 -0.016356147170194082 0.08656812154189258 -0.002878747880458832 -0.043834637850522995 -0.0014516860246658325 -0.011149777169275487 -0.04385125417485031
-0.016591116786003113 0.11630714175365353 0.12335950907283344 0.057309296447461834 0.08459577709436417 0.1477649520583364 0.012820028160005303 -0.2808952875232066
-0.08885981284902739 0.10778723695691886 0.0966316144304788 0.11973494765922695 0.10246181356522788 -0.08866069903069898 -0.08233642578125 0.020504769663496937
-0.04444403591655102 0.08743669837713242 -0.06159059861310524 0.05504553200351053 0.07139265536847354 0.13038201322989834 -0.17438260819795276 0.04060473293066025
0.04933264262375674 -0.6509011286983529 0.005125304308768498 -0.02259792312994615 0.02540444294040336 0.06962211832930165 0.07749321311712265 -0.23819004636936128
0.04038930684328079 -0.02663555375289301 0.024958437415504575 -0.04920032247900963 0.10989542547599308 -0.018802632457004167 0.09895046937250464 0.09690562760858953
-0.049908388068648696 0.04061374297369014 0.18225189010816814 -0.09592210732252682 0.003021645311551247 0.053813376227180444 -0.05528847680944528 -0.03399607048882026
0.041395125223432055 0.014166561904853287 0.013613022863864899 -0.03902340680360794 0.029020427309345363 -0.004592792049277295 0.05541446533451248 0.18268685513225114
-0.023866394143708468 -0.05428523309457844 -0.024231262505054474 0.008886631825816069 0.07335297601109034 -0.03845185396723914 0.05227703418419115 -0.2324777986625698
-0.010910145938396454 0.01349345210670772 0.058543879510328856 0.03145166602026459 0.07420128243710918 0.13767409657944873 0.13668037031220934 0.11410407979457053
0.05444752998801161 0.0703398659825325 0.09309091337989421 0.05047014633616257 -0.0158584856102735 0.03750058456734576 -0.027522753924131393 -0.03812374254974812
-0.08338300565592699 0.17877894932739527 -0.04525472324176484 0.02607046632763343 0.13239280263118122 0.03358052891812802 0.33475964069331404 0.02463973358082953
-0.04284075856210228 -0.009667310984808485 -0.5003435812424134 0.036226885843353374 -0.046994209892338545 0.06293232714673626 -0.06230761110782623 0.09347683546057602
0.02295369083965795 -0.003077658403080117 0.08028808981180191 -0.033196669071912766 0.08145878290951948 0.1343876345613601 0.014370738212351854 -0.05023463815450668
-0.0955977233017248 0.071080739414012 0.05687641169977288 0.18975263797622863 0.011335003746130102 -0.06702551990747452 0.06398356705904007 -0.00422747443578793
0.18944942224972383 0.007166415452957153 0.40215199589846057 0.09442883283341993 -0.04714816063642502 0.10536604676670758 0.027820530133090823 -0.007152455990535678
0.01689843088388443 -0.036703157642488576 -0.09595537454652757 0.024423861327929633 0.007829353213310242 0.027292855083942413 0.05497181872638203 0.10317053571937142
00000000: 0000 0000 2fd1 9bbf 87ad 05f1 8b16 afbf
00000010: 4227 9b36 5bfb b33f 900c 9907 7936 96bf
00000020: 0000 0000 6922 943f dfed 1150 dd7d b43f
00000030: 0000 0000 5025 873f da99 b23a 86fd dfbf
00000040: ec00 b7ca 5904 a1bf e679 8ef4 4f61 b93f
00000050: 8742 b141 4ee7 b83f cc29 e265 2cf3 963f
00000060: 6236 6f12 474c b3bf 9cdb 4cb6 034f ac3f
00000070: 0000 00a0 bb78 a4bf 313e 820d 1952 a9bf
00000080: 722f eeb3 aed6 9dbf 0000 00a0 f8ca b13f
00000090: eab7 e391 2a88 a63f 7848 ccba 4b8c ab3f
000000a0: 7640 4784 fe95 b33f 82df ab93 076f b0bf
000000b0: 853b b97f 9f08 c73f 0000 0000 5d5f b3bf
000000c0: 73f3 960f 4206 b73f 676c ffde 3a66 a13f
000000d0: ce46 5bd0 b3aa 963f 7fd6 67df 6f6d abbf
000000e0: b220 1336 7e13 5a3f 82bc b5f3 c1ce 9c3f
000000f0: 0000 00c0 003c aa3f 3520 faf9 1766 b9bf
00000100: 0000 00a0 c3cf b23f 8216 360b 2571 83bf
00000110: a562 210a 17c5 a43f 71b3 3f66 7f10 a0bf
00000120: aadb 14b6 de0e b93f 6aaf e72f 3f52 8a3f
00000130: 2265 73ce 35b0 a2bf 88a9 4593 5ecc bd3f
00000140: 0000 0000 ef99 943f a0c2 eb6f 6345 863f
00000150: 933b 9d62 8d6b b9bf eab1 abe9 f241 b6bf
00000160: 50f4 58ae cf0e a3bf 7d25 7b71 ea16 a03f
00000170: 0000 0080 0a80 933f bbe6 c6c5 27b8 a6bf
00000180: a6b1 ad6c 39ea b6bf a7cb 4f1b 93a7 85bf
00000190: 0000 00a0 2b02 a7bf 0000 0000 d65e a2bf
000001a0: 5ec8 bfcf a807 a9bf 0000 0000 e8c2 933f
000001b0: 8baa dbe0 0669 93bf 0310 2425 8220 c6bf
000001c0: 5e17 978e ae85 a33f b06b ae04 d4fb b43f
000001d0: 0000 00e0 cf23 b3bf b6c3 87f3 7f0c 993f
000001e0: d2a0 4e78 f1fb b5bf 941c f47b e833 babf
000001f0: 1bf9 6d3c 2b89 a3bf 37b8 8aab c33f c9bf
00000200: 7a72 c614 2fc6 b43f 9466 1fbf 414a a13f
00000210: 4291 af67 2da5 a2bf ab21 9150 8d16 b0bf
00000220: 0000 0000 2752 88bf 6f73 68c8 0618 a9bf
00000230: 2b76 030b 753a a63f a002 27b6 0b7a 963f
00000240: d922 7b36 8fcd b4bf 0000 00e0 c581 b03f
00000250: 54e9 1da7 e59d 8fbf 5fbc 57d9 c1bc 91bf
00000260: d3ae 8dbf afed b6bf 4978 d06f bd2e b13f
00000270: 0000 0000 f92d 95bf 4842 54e4 314d a0bf
00000280: ccff 30fa 3240 2bbf 77f3 eaa4 b007 9fbf
00000290: 83a1 9d42 2c1b 9b3f 125d 86be f591 a4bf
000002a0: 6e73 6f1e c34c bbbf 7492 ea94 288d a93f
000002b0: af70 61a0 b7d4 d9bf 383a 4bc1 2b1b a4bf
000002c0: 0000 0040 2716 ab3f 0b01 2133 d93e b03f
000002d0: 6b2a 68a7 e30c cbbf 7df8 12d1 71fa a8bf
000002e0: a36f 5dc3 5592 aabf d2c3 5596 a0bd b53f
000002f0: 0000 0000 8830 a1bf 3b08 dc58 9b6c b43f
00000300: fbac 3307 6fee a13f d302 0b47 cef7 b13f
00000310: 0000 0000 3453 8c3f 0000 0000 b5da 8abf
00000320: 8997 d9b6 6b34 a33f f34f a01b be76 713f
00000330: 5991 7806 d666 be3f 0000 0040 26ee ae3f
00000340: 41a7 c373 5f78 b03f 076b 2db6 8c7c b6bf
00000350: 0000 0080 eab7 9f3f 3dfd 6f12 f7c7 853f
00000360: 2917 efc4 06b1 a3bf 0000 0040 9981 af3f
00000370: 0000 00c0 fa54 b5bf de7c 5716 aafe b3bf
00000380: 73af de90 96ba c3bf 0000 0000 8648 873f
00000390: 2575 89d5 6a9e c7bf 0a9a 1584 6681 a6bf
000003a0: 0000 0020 0664 b63f 7937 4c32 a149 9f3f
000003b0: 7b58 4586 2eb0 99bf aa00 c0b3 4116 a03f
000003c0: 0000 00e0 babe b33f c4f9 bc74 aabf 90bf
000003d0: 7409 e612 5429 b63f 0000 0000 2c95 67bf
000003e0: 0000 0060 7e71 a6bf 0000 0000 d0c8 57bf
000003f0: 93d6 65c2 b1d5 86bf 189e 23ed ab73 a6bf
00000400: 0000 0000 43fd 90bf 9888 1f0a 4ec6 bd3f
00000410: c051 1e21 7d94 bf3f cd4a ffe3 a457 ad3f
00000420: 0000 00a0 11a8 b53f b8f3 4a42 f6e9 c23f
00000430: 93bb 720d 6341 8a3f e6cf 603a 30fa d1bf
00000440: 3c81 1d46 84bf b6bf b2fa a7c1 f197 bb3f
00000450: 1c14 bd77 d9bc b83f 8578 6214 f3a6 be3f
00000460: 18fc 59fa ef3a ba3f 7a00 c7b2 77b2 b6bf
00000470: 0000 0000 0014 b5bf aa88 77cc 33ff 943f
00000480: 8415 8761 5ec1 a6bf 0000 0060 4062 b63f
00000490: 5196 918d cd88 afbf 98f3 7d8f ed2e ac3f
000004a0: fb70 fbff c946 b23f 0a8f 6799 5bb0 c03f
000004b0: 1ac7 9957 2b52 c6bf 0000 00c0 24ca a43f
000004c0: 167a 63cd 2042 a93f 930b 969a 2ed4 e4bf
000004d0: 351a 3666 45fe 743f 26db 33f3 e823 97bf
000004e0: e694 684e 9f03 9a3f b876 4d51 c1d2 b13f
000004f0: 0000 0060 98d6 b33f 05cf b1ed 027d cebf
00000500: 0000 0040 e8ad a43f f23b 1ec1 5946 9bbf
00000510: 10de d561 b48e 993f 0000 00e0 c830 a9bf
00000520: c93e 664a 1b22 bc3f 1719 ed4d ff40 93bf
00000530: 39f6 e065 d154 b93f 3e93 60a5 cece b83f
00000540: 8c12 1a9d 978d a9bf 0028 ae13 53cb a43f
00000550: d50a d3a9 0754 c73f 48e5 e9e9 598e b8bf
00000560: 0118 6279 d9c0 683f c556 f745 6d8d ab3f
00000570: 8204 7c6f c54e acbf 014d e2d5 ee67 a1bf
00000580: 74d0 18ea bd31 a53f 2af5 9fc0 5b03 8d3f
00000590: 0000 0000 25e1 8b3f 0000 0040 e0fa a3bf
000005a0: 169d d6e8 87b7 9d3f 6733 623a e4cf 72bf
000005b0: b692 ace8 485f ac3f b0de 196a 4862 c73f
000005c0: b65e 4899 6e70 98bf ff09 9829 46cb abbf
000005d0: 0000 0080 14d0 98bf 05fe 8188 2733 823f
000005e0: f62a 08b9 42c7 b23f 5d0c 851e f6af a3bf
000005f0: be52 4e30 0ec4 aa3f b4a1 261f d5c1 cdbf
00000600: 0000 0000 0f58 86bf 434f 117c 74a2 8b3f
00000610: 8872 c19f 76f9 ad3f 9d6a ecc9 6e1a a03f
00000620: 1d7e 63f1 dafe b23f 7854 2807 4e9f c13f
00000630: 7b80 3f0c be7e c13f 93cf 0ecb ec35 bd3f
00000640: a000 4bf1 8be0 ab3f 0000 0020 cb01 b23f
00000650: 6b7b 855c ced4 b73f 8555 e017 39d7 a93f
00000660: 07a8 3df4 343d 90bf 4463 98d0 4633 a33f
00000670: 0000 00c0 ec2e 9cbf cb92 e786 f484 a3bf
00000680: 8c9a 55b2 9658 b5bf 1186 4986 3ae2 c63f
00000690: e235 a088 a02b a7bf 3f1a 1361 37b2 9a3f
000006a0: 1b6b c352 3ff2 c03f 31b3 f892 7731 a13f
000006b0: 891a 33b3 b36c d53f 0bb3 a587 283b 993f
000006c0: 278d eb51 39ef a5bf 19fd 2884 74cc 83bf
000006d0: d163 c68a d002 e0bf f8c2 dd93 548c a23f
000006e0: 588b 2d05 a00f a8bf f9d6 f43e 551c b03f
000006f0: 0000 0080 c8e6 afbf 759b 3c0f 19ee b73f
00000700: 4751 ea1d 2c81 973f 954a 1046 5136 69bf
00000710: 0000 00a0 c28d b43f 0000 0060 27ff a0bf
00000720: 617f 9198 7bda b43f 7ec3 b62f 9d33 c13f
00000730: 61a5 21d5 676e 8d3f 0000 00c0 5ab8 a9bf
00000740: b928 27a7 1779 b8bf 3c9f 28eb 5832 b23f
00000750: 8226 54b0 e71e ad3f 3f04 387f d049 c83f
00000760: 5a09 1e73 ce36 873f 0000 00a0 9528 b1bf
00000770: 0000 0020 3a61 b03f d264 2407 d450 71bf
00000780: 2082 67f0 e03f c83f 0000 0000 885a 7d3f
00000790: c1eb 99b9 dbbc d93f 4ea9 d1ec 7c2c b83f
000007a0: 0000 00c0 cd23 a8bf e8c8 f8ec 44f9 ba3f
000007b0: 5fe7 502c fc7c 9c3f 5a00 0cc9 e44b 7dbf
000007c0: 0000 0080 d24d 913f 0406 789b c1ca a2bf
000007d0: 1f82 8d0b 8890 b8bf 24fd 9496 9102 993f
000007e0: 0000 0000 d608 803f 0000 0080 a8f2 9b3f
000007f0: 924d 4327 4425 ac3f f953 d35c 6269 ba3f

fc2.bias f8 [64]
0.07837947425128601 -0.07703775398219154 -0.08190608335038056 0.27532813407522677 0.4337868851912405 -0.14376687687974118 0.017555791574144695 0.041704279477400776
-0.06107363436014331 0.2773088067870779 -0.25956684621962894 0.017393768427735646 0.0403335674663178 0.16439520402679775 0.184174318478852 -0.027130834111987166
0.3443739230573465 -0.033891748007021515 0.4994643552386115 -0.2615104630147929 -0.08688179377445387 -0.4108796579271809 -0.030066674970485003 0.28886380993530114
0.14442188880057308 -0.24142293766261774 0.17841989724733717 0.17446620979562122 0.18416152831990087 0.1424938733100989 0.18135611281969705 0.14807126844656326
0.12033017097733614 -0.041501502769884735 0.3988130361056211 -0.14619826692126617 -0.21487878483612022 0.06817129842146058 0.26304757906862075 -0.06912890310249187
0.12261949412849842 0.11242175456888139 -0.06328530036448045 0.6451135651210742 0.5467484203166034 -0.09374787463830611 0.09660190698007613 0.7350004457899557
-0.05156501378990834 -0.08248642997814609 -0.2994696260229091 -0.04151973034721244 -0.1299653329631561 -0.21221787378002663 -0.09600002551526042 -0.0272958589436006
-0.1344654231876331 0.372681644007472 -0.021703281043477494 0.3152592876549985 -0.16434300647793718 0.17886817048101203 0.2834472860613905 0.31837960860865233
00000000: 3142 965e ad10 b43f 9c2a e909 bfb8 b3bf
00000010: 6b55 550d ccf7 b4bf 3565 e1e4 f99e d13f
00000020: 1b20 5511 2ac3 db3f 7328 39f9 f366 c2bf
00000030: 0956 aa3a 25fa 913f 25d8 ea68 435a a53f
00000040: eb08 731c 0b45 afbf 24c5 0270 6dbf d13f
00000050: 1fe8 e842 be9c d0bf bd8d 340a accf 913f
00000060: f3ce 65f2 99a6 a43f 3809 75ec e60a c53f
00000070: e79b 5029 0693 c73f 0991 e574 2fc8 9bbf
00000080: f618 48ec 380a d63f 9bbf 965a 425a a1bf
00000090: bf1f d157 39f7 df3f 6d76 8d61 96bc d0bf
000000a0: 6c0c e19e e23d b6bf e3e3 5831 da4b dabf
000000b0: 8570 ca66 ccc9 9ebf 90e2 2aa2 be7c d23f
000000c0: 21cd 9c9c 6a7c c23f bef1 e162 f2e6 cebf
000000d0: ef05 d193 76d6 c63f 7425 aaa4 e854 c63f
000000e0: 755d a8de 9a92 c73f a1a5 df3e 3d3d c23f
000000f0: aac1 be56 ad36 c73f d844 bad3 fff3 c23f
00000100: f2da 1145 f5cd be3f 1055 435a af3f a5bf
00000110: edb1 d21c 2786 d93f d550 94f3 9fb6 c2bf
00000120: 80d8 bce4 2581 cbbf ccfb 3e99 ac73 b13f
00000130: 9e11 5983 c5d5 d03f 1897 088a 6eb2 b1bf
00000140: 834b 22bd fd63 bf3f f976 3b0f acc7 bc3f
00000150: 010b 6227 7733 b0bf d4d4 0c34 c5a4 e43f
00000160: 7dc8 0c8b f67e e13f b61a a457 dcff b7bf
00000170: e3ed 350f e7ba b83f 32d3 a6a7 1f85 e73f
00000180: 36de b0bf ba66 aabf d4b3 1ea7 d41d b5bf
00000190: cd7a 7aa6 822a d3bf adc4 f5f7 1242 a5bf
000001a0: 8262 583b b4a2 c0bf f784 c18d f429 cbbf
000001b0: 4fd2 002a 7593 b8bf 527d ea15 72f3 9bbf
000001c0: c44f 84b9 2936 c1bf 0b39 351c 04da d73f
000001d0: 99c6 3089 6239 96bf 2d43 8f4a 352d d43f
000001e0: 4714 130f 3109 c5bf 4172 41f7 26e5 c63f
000001f0: 2383 f115 0024 d23f 0cff abdd 5460 d43f

fc3.weight f8 [2, 64]
-0.013249459650775548 0.025605825917764658 -0.13688413409100803 0.05101739990540894 0.0556881535356248 -0.13197823958281238 -0.09268621682537981 0.1234391335807706
0.12687204304213223 0.274437212078183 0.07166492153616487 0.22873023144622395 0.21078720972527917 -0.005493693619573024 -0.08341934619913347 0.06966295827471049
0.0012150819999911203 0.05883157654499004 0.04254084698213919 0.1266656121893016 -0.21944611452230448 0.020200488846860976 -0.22770563525342435 -0.03864074596760008
0.13047730219086998 -0.33140796303747694 0.06922955909016237 -0.011041714344303276 -0.09777366069608674 0.265105893909508 0.018468457425462482 0.27689415420553537
-0.33811529127076023 0.14751741887901942 0.29841965325252817 0.23922907248999808 0.13226282221347627 0.12442286302578395 0.2306355853699314 0.030137559142255722
0.1275680350438128 -0.08108466485915361 0.03908023458399485 0.10317593464231345 0.05746984317003243 0.2158454621325193 0.06971229896642618 0.08000640071677521
-0.07664186014620926 -0.13827615652256128 -0.14199512490226734 0.14169815986637116 -0.04515095319484531 0.43940514484605153 -0.25850891783111163 -0.1155200839263935
0.3437035015195004 0.020726796820294373 -0.026612282574778916 0.03866327016007154 0.1264560283669497 0.3321366946049456 0.08315933679110468 0.026225215465832553
0.1356837982938261 -0.001122450052685774 -0.0537321091386277 0.08990861356790247 0.2656270483605853 0.19031602568586556 -0.08042161570996928 -0.008455273121066404
-0.12819125274694718 -0.2300600955113276 -0.043995285069941575 -0.12858527798529878 -0.19036355525958548 0.24453488038352605 0.3504126564472386 -0.12078295243537217
0.30811004260171887 0.003323586164426308 0.34692483866469853 -0.15232084033856103 0.16982825119447512 -0.40155898980059795 -0.1869867728717548 0.1839715507309534
0.05598074996913028 0.08896670247809861 0.07230100572445694 0.09554394729091839 0.2207590596364636 -0.10659468761945386 0.2227888846599948 -0.08739922920019495
0.06819001521007141 -0.11728920452803827 0.0965096925682422 -0.4150479081001879 -0.15242446852105132 -0.0002704794579803967 -0.07825688086926466 0.005766646260404301
-0.0021233082893771763 0.2331680595105178 -0.01405642156729241 0.19357329443598825 0.1436752051773647 -0.09953420891150684 -0.08964414990889014 0.15937572334261582
-0.11827508630473513 -0.2540732784211015 -0.3014319906151553 0.014019777297751078 -0.05331908195791282 -0.21015683619173303 -0.22599007998308587 0.10260557714490137
-0.4388816925086864 0.08905958997695347 -0.020705548259584233 0.17657736455283526 -0.08702458094890882 -0.15616005067401983 0.05237752063220455 0.15884822139966523
00000000: 9736 1e5f 8822 8bbf ad8f 9de3 6938 9a3f
00000010: 668e a157 6b85 c1bf 69ca 3de0 f31e aa3f
00000020: da96 6b5c 2883 ac3f bf5a 65b7 a9e4 c0bf
00000030: 9812 0eae 48ba b7bf f6a6 c601 b599 bf3f
00000040: c242 d2d5 573d c03f fb98 ab18 6190 d13f
00000050: ffaa 44de a158 b23f 6c82 d53f 0847 cd3f
00000060: 8fb3 1746 13fb ca3f be8c e226 8e80 76bf
00000070: 3e6b c763 f85a b5bf 8951 887f 6ed5 b13f
00000080: 6d42 ec5c 6ce8 533f 7f38 7722 2c1f ae3f
00000090: 6b9a 10f5 e9c7 a53f 54c0 f02a 9436 c03f
000000a0: cdc4 8d6e cf16 ccbf 3d88 d7db 6faf 943f
000000b0: 60a1 4350 7525 cdbf 37a1 7248 b8c8 a3bf
000000c0: 2dda e3f0 7ab3 c03f f150 b8be c935 d5bf
000000d0: 7070 3544 07b9 b13f d923 01d0 099d 86bf
000000e0: 9992 19d3 b107 b9bf 1a5d 14b6 7ef7 d03f
000000f0: 2d87 9932 65e9 923f f70b 3142 a2b8 d13f
00000100: 7a44 9251 aea3 d5bf 0a7e d6cc d9e1 c23f
00000110: 5a02 cdbe 4e19 d33f 0669 4ce9 0e9f ce3f
00000120: ef17 f1f7 fced c03f ae07 923f 2dda bf3f
00000130: fa94 3a84 7785 cd3f cac9 965b 61dc 9e3f
00000140: ae9a 433d 2654 c03f 9cf5 c6ef f6c1 b4bf
00000150: d9a1 ea12 5302 a43f 58e1 05f1 bc69 ba3f
00000160: ddd3 d7f1 af6c ad3f d3b1 6cf8 d2a0 cb3f
00000170: 1995 304c aad8 b13f b799 8caa 4c7b b43f
00000180: 9b23 d50a cd9e b3bf 7b5d 0a79 08b3 c1bf
00000190: 32c6 d270 e52c c2bf d1c4 4351 2a23 c23f
000001a0: 01ce b596 061e a7bf 32b5 b3c1 361f dc3f
000001b0: 42c6 f3fc 688b d0bf a3ba 7e66 b992 bdbf
000001c0: 1301 a3f8 3cff d53f 6edb f9c9 6739 953f
000001d0: 2b85 520d 4040 9bbf e0af c911 accb a33f
000001e0: 9cea 1b0d b62f c03f 554e 4844 ba41 d53f
000001f0: caf5 df27 ee49 b53f 9d74 066b c8da 9a3f
00000200: 0670 2232 165e c13f 95a6 2191 e563 52bf
00000210: 51b3 fd66 c682 abbf b820 e73a 4004 b73f
00000220: 0312 6997 0800 d13f cfdc 1c89 465c c83f
00000230: eea4 5dd1 8296 b4bf 3713 458c ff50 81bf
00000240: 6338 172b 9268 c0bf 1efb 2af5 9b72 cdbf
00000250: f470 1bcd 8c86 a6bf 9ad2 d87d 7b75 c0bf
00000260: c058 183e d55d c8bf 0640 fd40 eb4c cf3f
00000270: 66e7 e234 296d d63f a7ce 9fae a1eb bebf
00000280: 83c9 222f 13b8 d33f 1d78 36bc 103a 6b3f
00000290: 8709 0f3d 0434 d63f 026e e0d1 3f7f c3bf
000002a0: 2998 68a0 eebc c53f 77ef 267a 24b3 d9bf
000002b0: f466 22bd 2eef c7bf 3055 e438 618c c73f
000002c0: 015c a544 82a9 ac3f ab8e 9395 85c6 b63f
000002d0: 86f0 0d97 5182 b23f 66fb f170 9175 b83f
000002e0: f597 b736 d541 cc3f 6dbd 4019 ca49 bbbf
000002f0: 8874 c39e 5884 cc3f 2946 1cbf cb5f b6bf
00000300: 21b2 3d9d e674 b13f f12c 9f51 aa06 bebf
00000310: 8bde 53f5 dbb4 b83f b810 e419 2590 dabf
00000320: 853c b41d a582 c3bf 37be 1f6d e4b9 31bf
00000330: da3c 0598 a408 b4bf 465e 8951 c49e 773f
00000340: 79bf 3075 e664 61bf ede3 0873 73d8 cd3f
00000350: 5a46 71f7 9cc9 8cbf 60a3 7d7c 02c7 c83f
00000360: bace bdf9 f263 c23f f5af 1bec 127b b9bf
00000370: 68eb 2244 ebf2 b6bf 5f35 c477 6c66 c43f
00000380: 2644 9cab 4647 bebf e4ca 6691 bc42 d0bf
00000390: e141 6a67 a94a d3bf 8ca8 eda7 66b6 8c3f
000003a0: 2422 8682 a34c abbf 9ab6 3c51 6be6 cabf
000003b0: 31b7 5f31 3eed ccbf 887c 39ee 5b44 ba3f
000003c0: f3d3 083d a316 dcbf 8d9f 58fa 9bcc b63f
000003d0: 588f 7bd2 d533 95bf 29f1 fb4a 169a c63f
000003e0: b5a8 1f31 3e47 b6bf 4c16 4b73 0dfd c3bf
000003f0: 5c5f 52f4 39d1 aa3f f33b f875 2355 c43f

fc3.bias f8 [2]
0.49076125856753783 0.41246638849040546
00000000: 7c3f ece8 a168 df3f 51fe 506c d965 da3f
